…
[34m[1mClearML: [0mWARNING ‚ö†Ô∏è ClearML is installed but not configured, skipping ClearML logging. See https://docs.ultralytics.com/yolov5/tutorials/clearml_logging_integration#readme
[34m[1mClearML: [0mWARNING ‚ö†Ô∏è ClearML is installed but not configured, skipping ClearML logging. See https://docs.ultralytics.com/yolov5/tutorials/clearml_logging_integration#readme
Overriding model.yaml nc=80 with nc=6
Overriding model.yaml nc=80 with nc=6

                 from  n    params  module                                  arguments                     

                 from  n    params  module                                  arguments                     
  0                -1  1      8800  models.common.Conv                      [3, 80, 6, 2, 2]              
  0                -1  1      3520  models.common.Conv                      [3, 32, 6, 2, 2]              
  1                -1  1     18560  models.common.Conv                      [32, 64, 3, 2]                
  1                -1  1    115520  models.common.Conv                      [80, 160, 3, 2]               
  2                -1  1     18816  models.common.C3                        [64, 64, 1]                   
  3                -1  1     73984  models.common.Conv                      [64, 128, 3, 2]               
  4                -1  2    115712  models.common.C3                        [128, 128, 2]                 
  2                -1  4    309120  models.common.C3                        [160, 160, 4]                 
  5                -1  1    295424  models.common.Conv                      [128, 256, 3, 2]              
  3                -1  1    461440  models.common.Conv                      [160, 320, 3, 2]              
  6                -1  3    625152  models.common.C3                        [256, 256, 3]                 
  7                -1  1   1180672  models.common.Conv                      [256, 512, 3, 2]              
  4                -1  8   2259200  models.common.C3                        [320, 320, 8]                 
  8                -1  1   1182720  models.common.C3                        [512, 512, 1]                 
  9                -1  1    656896  models.common.SPPF                      [512, 512, 5]                 
 10                -1  1    131584  models.common.Conv                      [512, 256, 1, 1]              
 11                -1  1         0  torch.nn.modules.upsampling.Upsample    [None, 2, 'nearest']          
 12           [-1, 6]  1         0  models.common.Concat                    [1]                           
  5                -1  1   1844480  models.common.Conv                      [320, 640, 3, 2]              
 13                -1  1    361984  models.common.C3                        [512, 256, 1, False]          
 14                -1  1     33024  models.common.Conv                      [256, 128, 1, 1]              
 15                -1  1         0  torch.nn.modules.upsampling.Upsample    [None, 2, 'nearest']          
 16           [-1, 4]  1         0  models.common.Concat                    [1]                           
 17                -1  1     90880  models.common.C3                        [256, 128, 1, False]          
 18                -1  1    147712  models.common.Conv                      [128, 128, 3, 2]              
 19          [-1, 14]  1         0  models.common.Concat                    [1]                           
 20                -1  1    296448  models.common.C3                        [256, 256, 1, False]          
 21                -1  1    590336  models.common.Conv                      [256, 256, 3, 2]              
 22          [-1, 10]  1         0  models.common.Concat                    [1]                           
 23                -1  1   1182720  models.common.C3                        [512, 512, 1, False]          
 24      [17, 20, 23]  1     29667  models.yolo.Detect                      [6, [[10, 13, 16, 30, 33, 23], [30, 61, 62, 45, 59, 119], [116, 90, 156, 198, 373, 326]], [128, 256, 512]]
  6                -1 12  13125120  models.common.C3                        [640, 640, 12]                
  7                -1  1   7375360  models.common.Conv                      [640, 1280, 3, 2]             
  8                -1  4  19676160  models.common.C3                        [1280, 1280, 4]               
  9                -1  1   4099840  models.common.SPPF                      [1280, 1280, 5]               
 10                -1  1    820480  models.common.Conv                      [1280, 640, 1, 1]             
 11                -1  1         0  torch.nn.modules.upsampling.Upsample    [None, 2, 'nearest']          
 12           [-1, 6]  1         0  models.common.Concat                    [1]                           
 13                -1  4   5332480  models.common.C3                        [1280, 640, 4, False]         
 14                -1  1    205440  models.common.Conv                      [640, 320, 1, 1]              
 15                -1  1         0  torch.nn.modules.upsampling.Upsample    [None, 2, 'nearest']          
 16           [-1, 4]  1         0  models.common.Concat                    [1]                           
 17                -1  4   1335040  models.common.C3                        [640, 320, 4, False]          
 18                -1  1    922240  models.common.Conv                      [320, 320, 3, 2]              
 19          [-1, 14]  1         0  models.common.Concat                    [1]                           
 20                -1  4   4922880  models.common.C3                        [640, 640, 4, False]          
 21                -1  1   3687680  models.common.Conv                      [640, 640, 3, 2]              
 22          [-1, 10]  1         0  models.common.Concat                    [1]                           
YOLOv5s summary: 214 layers, 7035811 parameters, 7035811 gradients, 16.0 GFLOPs

 23                -1  4  19676160  models.common.C3                        [1280, 1280, 4, False]        
 24      [17, 20, 23]  1     74019  models.yolo.Detect                      [6, [[10, 13, 16, 30, 33, 23], [30, 61, 62, 45, 59, 119], [116, 90, 156, 198, 373, 326]], [320, 640, 1280]]
YOLOv5x summary: 445 layers, 86251459 parameters, 86251459 gradients, 204.7 GFLOPs

[34m[1mAMP: [0mchecks passed ‚úÖ
[34m[1moptimizer:[0m SGD(lr=0.01) with parameter groups 57 weight(decay=0.0), 60 weight(decay=0.0005), 60 bias
…
